…
   "outputs": [],
   "source": [
    "test_df = pd.read_csv(\"../input/jigsaw-unintended-bias-in-toxicity-classification/test.csv\")\n",
    "test_df['comment_text'] = test_df['comment_text'].astype(str) \n",
    "X_test = convert_lines(test_df[\"comment_text\"].fillna(\"DUMMY_VALUE\"), MAX_SEQUENCE_LENGTH, tokenizer)"
   ]
  },
  {
   "cell_type": "code",
   "execution_count": 6,
   "metadata": {},
   "outputs": [
    {
     "data": {
      "text/plain": [
       "BertForSequenceClassification(\n",
       "  (bert): BertModel(\n",
       "    (embeddings): BertEmbeddings(\n",
       "      (word_embeddings): Embedding(30522, 768, padding_idx=0)\n",
       "      (position_embeddings): Embedding(512, 768)\n",
       "      (token_type_embeddings): Embedding(2, 768)\n",
       "      (LayerNorm): BertLayerNorm()\n",
       "      (dropout): Dropout(p=0.1)\n",
       "    )\n",
       "    (encoder): BertEncoder(\n",
       "      (layer): ModuleList(\n",
       "        (0): BertLayer(\n",
       "          (attention): BertAttention(\n",
       "            (self): BertSelfAttention(\n",
       "              (query): Linear(in_features=768, out_features=768, bias=True)\n",
       "              (key): Linear(in_features=768, out_features=768, bias=True)\n",
       "              (value): Linear(in_features=768, out_features=768, bias=True)\n",
       "              (dropout): Dropout(p=0.1)\n",
       "            )\n",
       "            (output): BertSelfOutput(\n",
       "              (dense): Linear(in_features=768, out_features=768, bias=True)\n",
       "              (LayerNorm): BertLayerNorm()\n",
       "              (dropout): Dropout(p=0.1)\n",
       "            )\n",
       "          )\n",
       "          (intermediate): BertIntermediate(\n",
       "            (dense): Linear(in_features=768, out_features=3072, bias=True)\n",
       "          )\n",
       "          (output): BertOutput(\n",
       "            (dense): Linear(in_features=3072, out_features=768, bias=True)\n",
       "            (LayerNorm): BertLayerNorm()\n",
       "            (dropout): Dropout(p=0.1)\n",
       "          )\n",
       "        )\n",
       "        (1): BertLayer(\n",
       "          (attention): BertAttention(\n",
       "            (self): BertSelfAttention(\n",
       "              (query): Linear(in_features=768, out_features=768, bias=True)\n",
       "              (key): Linear(in_features=768, out_features=768, bias=True)\n",
       "              (value): Linear(in_features=768, out_features=768, bias=True)\n",
       "              (dropout): Dropout(p=0.1)\n",
       "            )\n",
       "            (output): BertSelfOutput(\n",
       "              (dense): Linear(in_features=768, out_features=768, bias=True)\n",
       "              (LayerNorm): BertLayerNorm()\n",
       "              (dropout): Dropout(p=0.1)\n",
       "            )\n",
       "          )\n",
       "          (intermediate): BertIntermediate(\n",
       "            (dense): Linear(in_features=768, out_features=3072, bias=True)\n",
       "          )\n",
       "          (output): BertOutput(\n",
       "            (dense): Linear(in_features=3072, out_features=768, bias=True)\n",
       "            (LayerNorm): BertLayerNorm()\n",
       "            (dropout): Dropout(p=0.1)\n",
       "          )\n",
       "        )\n",
       "        (2): BertLayer(\n",
       "          (attention): BertAttention(\n",
       "            (self): BertSelfAttention(\n",
       "              (query): Linear(in_features=768, out_features=768, bias=True)\n",
       "              (key): Linear(in_features=768, out_features=768, bias=True)\n",
       "              (value): Linear(in_features=768, out_features=768, bias=True)\n",
       "              (dropout): Dropout(p=0.1)\n",
       "            )\n",
       "            (output): BertSelfOutput(\n",
       "              (dense): Linear(in_features=768, out_features=768, bias=True)\n",
       "              (LayerNorm): BertLayerNorm()\n",
       "              (dropout): Dropout(p=0.1)\n",
       "            )\n",
       "          )\n",
       "          (intermediate): BertIntermediate(\n",
       "            (dense): Linear(in_features=768, out_features=3072, bias=True)\n",
       "          )\n",
       "          (output): BertOutput(\n",
       "            (dense): Linear(in_features=3072, out_features=768, bias=True)\n",
       "            (LayerNorm): BertLayerNorm()\n",
       "            (dropout): Dropout(p=0.1)\n",
       "          )\n",
       "        )\n",
       "        (3): BertLayer(\n",
       "          (attention): BertAttention(\n",
       "            (self): BertSelfAttention(\n",
       "              (query): Linear(in_features=768, out_features=768, bias=True)\n",
       "              (key): Linear(in_features=768, out_features=768, bias=True)\n",
       "              (value): Linear(in_features=768, out_features=768, bias=True)\n",
       "              (dropout): Dropout(p=0.1)\n",
       "            )\n",
       "            (output): BertSelfOutput(\n",
       "              (dense): Linear(in_features=768, out_features=768, bias=True)\n",
       "              (LayerNorm): BertLayerNorm()\n",
       "              (dropout): Dropout(p=0.1)\n",
       "            )\n",
       "          )\n",
       "          (intermediate): BertIntermediate(\n",
       "            (dense): Linear(in_features=768, out_features=3072, bias=True)\n",
       "          )\n",
       "          (output): BertOutput(\n",
       "            (dense): Linear(in_features=3072, out_features=768, bias=True)\n",
       "            (LayerNorm): BertLayerNorm()\n",
       "            (dropout): Dropout(p=0.1)\n",
       "          )\n",
       "        )\n",
       "        (4): BertLayer(\n",
       "          (attention): BertAttention(\n",
       "            (self): BertSelfAttention(\n",
       "              (query): Linear(in_features=768, out_features=768, bias=True)\n",
       "              (key): Linear(in_features=768, out_features=768, bias=True)\n",
       "              (value): Linear(in_features=768, out_features=768, bias=True)\n",
       "              (dropout): Dropout(p=0.1)\n",
       "            )\n",
       "            (output): BertSelfOutput(\n",
       "              (dense): Linear(in_features=768, out_features=768, bias=True)\n",
       "              (LayerNorm): BertLayerNorm()\n",
       "              (dropout): Dropout(p=0.1)\n",
       "            )\n",
       "          )\n",
       "          (intermediate): BertIntermediate(\n",
       "            (dense): Linear(in_features=768, out_features=3072, bias=True)\n",
       "          )\n",
       "          (output): BertOutput(\n",
       "            (dense): Linear(in_features=3072, out_features=768, bias=True)\n",
       "            (LayerNorm): BertLayerNorm()\n",
       "            (dropout): Dropout(p=0.1)\n",
       "          )\n",
       "        )\n",
       "        (5): BertLayer(\n",
       "          (attention): BertAttention(\n",
       "            (self): BertSelfAttention(\n",
       "              (query): Linear(in_features=768, out_features=768, bias=True)\n",
       "              (key): Linear(in_features=768, out_features=768, bias=True)\n",
       "              (value): Linear(in_features=768, out_features=768, bias=True)\n",
       "              (dropout): Dropout(p=0.1)\n",
       "            )\n",
       "            (output): BertSelfOutput(\n",
       "              (dense): Linear(in_features=768, out_features=768, bias=True)\n",
       "              (LayerNorm): BertLayerNorm()\n",
       "              (dropout): Dropout(p=0.1)\n",
       "            )\n",
       "          )\n",
       "          (intermediate): BertIntermediate(\n",
       "            (dense): Linear(in_features=768, out_features=3072, bias=True)\n",
       "          )\n",
       "          (output): BertOutput(\n",
       "            (dense): Linear(in_features=3072, out_features=768, bias=True)\n",
       "            (LayerNorm): BertLayerNorm()\n",
       "            (dropout): Dropout(p=0.1)\n",
       "          )\n",
       "        )\n",
       "        (6): BertLayer(\n",
       "          (attention): BertAttention(\n",
       "            (self): BertSelfAttention(\n",
       "              (query): Linear(in_features=768, out_features=768, bias=True)\n",
       "              (key): Linear(in_features=768, out_features=768, bias=True)\n",
       "              (value): Linear(in_features=768, out_features=768, bias=True)\n",
       "              (dropout): Dropout(p=0.1)\n",
       "            )\n",
       "            (output): BertSelfOutput(\n",
       "              (dense): Linear(in_features=768, out_features=768, bias=True)\n",
       "              (LayerNorm): BertLayerNorm()\n",
       "              (dropout): Dropout(p=0.1)\n",
       "            )\n",
       "          )\n",
       "          (intermediate): BertIntermediate(\n",
       "            (dense): Linear(in_features=768, out_features=3072, bias=True)\n",
       "          )\n",
       "          (output): BertOutput(\n",
       "            (dense): Linear(in_features=3072, out_features=768, bias=True)\n",
       "            (LayerNorm): BertLayerNorm()\n",
       "            (dropout): Dropout(p=0.1)\n",
       "          )\n",
       "        )\n",
       "        (7): BertLayer(\n",
       "          (attention): BertAttention(\n",
       "            (self): BertSelfAttention(\n",
       "              (query): Linear(in_features=768, out_features=768, bias=True)\n",
       "              (key): Linear(in_features=768, out_features=768, bias=True)\n",
       "              (value): Linear(in_features=768, out_features=768, bias=True)\n",
       "              (dropout): Dropout(p=0.1)\n",
       "            )\n",
       "            (output): BertSelfOutput(\n",
       "              (dense): Linear(in_features=768, out_features=768, bias=True)\n",
       "              (LayerNorm): BertLayerNorm()\n",
       "              (dropout): Dropout(p=0.1)\n",
       "            )\n",
       "          )\n",
       "          (intermediate): BertIntermediate(\n",
       "            (dense): Linear(in_features=768, out_features=3072, bias=True)\n",
       "          )\n",
       "          (output): BertOutput(\n",
       "            (dense): Linear(in_features=3072, out_features=768, bias=True)\n",
       "            (LayerNorm): BertLayerNorm()\n",
       "            (dropout): Dropout(p=0.1)\n",
       "          )\n",
       "        )\n",
       "        (8): BertLayer(\n",
       "          (attention): BertAttention(\n",
       "            (self): BertSelfAttention(\n",
       "              (query): Linear(in_features=768, out_features=768, bias=True)\n",
       "              (key): Linear(in_features=768, out_features=768, bias=True)\n",
       "              (value): Linear(in_features=768, out_features=768, bias=True)\n",
       "              (dropout): Dropout(p=0.1)\n",
       "            )\n",
       "            (output): BertSelfOutput(\n",
       "              (dense): Linear(in_features=768, out_features=768, bias=True)\n",
       "              (LayerNorm): BertLayerNorm()\n",
       "              (dropout): Dropout(p=0.1)\n",
       "            )\n",
       "          )\n",
       "          (intermediate): BertIntermediate(\n",
       "            (dense): Linear(in_features=768, out_features=3072, bias=True)\n",
       "          )\n",
       "          (output): BertOutput(\n",
       "            (dense): Linear(in_features=3072, out_features=768, bias=True)\n",
       "            (LayerNorm): BertLayerNorm()\n",
       "            (dropout): Dropout(p=0.1)\n",
       "          )\n",
       "        )\n",
       "        (9): BertLayer(\n",
       "          (attention): BertAttention(\n",
       "            (self): BertSelfAttention(\n",
       "              (query): Linear(in_features=768, out_features=768, bias=True)\n",
       "              (key): Linear(in_features=768, out_features=768, bias=True)\n",
       "              (value): Linear(in_features=768, out_features=768, bias=True)\n",
       "              (dropout): Dropout(p=0.1)\n",
       "            )\n",
       "            (output): BertSelfOutput(\n",
       "              (dense): Linear(in_features=768, out_features=768, bias=True)\n",
       "              (LayerNorm): BertLayerNorm()\n",
       "              (dropout): Dropout(p=0.1)\n",
       "            )\n",
       "          )\n",
       "          (intermediate): BertIntermediate(\n",
       "            (dense): Linear(in_features=768, out_features=3072, bias=True)\n",
       "          )\n",
       "          (output): BertOutput(\n",
       "            (dense): Linear(in_features=3072, out_features=768, bias=True)\n",
       "            (LayerNorm): BertLayerNorm()\n",
       "            (dropout): Dropout(p=0.1)\n",
       "          )\n",
       "        )\n",
       "        (10): BertLayer(\n",
       "          (attention): BertAttention(\n",
       "            (self): BertSelfAttention(\n",
       "              (query): Linear(in_features=768, out_features=768, bias=True)\n",
       "              (key): Linear(in_features=768, out_features=768, bias=True)\n",
       "              (value): Linear(in_features=768, out_features=768, bias=True)\n",
       "              (dropout): Dropout(p=0.1)\n",
       "            )\n",
       "            (output): BertSelfOutput(\n",
       "              (dense): Linear(in_features=768, out_features=768, bias=True)\n",
       "              (LayerNorm): BertLayerNorm()\n",
       "              (dropout): Dropout(p=0.1)\n",
       "            )\n",
       "          )\n",
       "          (intermediate): BertIntermediate(\n",
       "            (dense): Linear(in_features=768, out_features=3072, bias=True)\n",
       "          )\n",
       "          (output): BertOutput(\n",
       "            (dense): Linear(in_features=3072, out_features=768, bias=True)\n",
       "            (LayerNorm): BertLayerNorm()\n",
       "            (dropout): Dropout(p=0.1)\n",
       "          )\n",
       "        )\n",
       "        (11): BertLayer(\n",
       "          (attention): BertAttention(\n",
       "            (self): BertSelfAttention(\n",
       "              (query): Linear(in_features=768, out_features=768, bias=True)\n",
       "              (key): Linear(in_features=768, out_features=768, bias=True)\n",
       "              (value): Linear(in_features=768, out_features=768, bias=True)\n",
       "              (dropout): Dropout(p=0.1)\n",
       "            )\n",
       "            (output): BertSelfOutput(\n",
       "              (dense): Linear(in_features=768, out_features=768, bias=True)\n",
       "              (LayerNorm): BertLayerNorm()\n",
       "              (dropout): Dropout(p=0.1)\n",
       "            )\n",
       "          )\n",
       "          (intermediate): BertIntermediate(\n",
       "            (dense): Linear(in_features=768, out_features=3072, bias=True)\n",
       "          )\n",
       "          (output): BertOutput(\n",
       "            (dense): Linear(in_features=3072, out_features=768, bias=True)\n",
       "            (LayerNorm): BertLayerNorm()\n",
       "            (dropout): Dropout(p=0.1)\n",
       "          )\n",
       "        )\n",
       "      )\n",
       "    )\n",
       "    (pooler): BertPooler(\n",
       "      (dense): Linear(in_features=768, out_features=768, bias=True)\n",
       "      (activation): Tanh()\n",
       "    )\n",
       "  )\n",
       "  (dropout): Dropout(p=0.1)\n",
       "  (classifier): Linear(in_features=768, out_features=1, bias=True)\n",
       ")"
      ]
     },
     "execution_count": 6,
     "metadata": {},
     "output_type": "execute_result"
    }
   ],
   "source": [
    "model = BertForSequenceClassification(bert_config, num_labels=1)\n",
    "model.load_state_dict(torch.load(\"../input/inference/bert/bert/bert_pytorch.bin\"))\n",
    "model.to(device)\n",
    "for param in model.parameters():\n",
…
